…
12d14e-2510-46ce-894c-41739b6feffd","executionInfo":{"status":"ok","timestamp":1562326102530,"user_tz":-330,"elapsed":1510,"user":{"displayName":"Sonal Dangi","photoUrl":"","userId":"16024902052506913780"}},"colab":{"base_uri":"https://localhost:8080/","height":816}},"source":["model.summary()"],"execution_count":0,"outputs":[{"output_type":"stream","text":["_________________________________________________________________\n","Layer (type)                 Output Shape              Param #   \n","=================================================================\n","conv2d_43 (Conv2D)           (None, 30, 30, 32)        320       \n","_________________________________________________________________\n","conv2d_44 (Conv2D)           (None, 30, 30, 32)        9248      \n","_________________________________________________________________\n","batch_normalization_31 (Batc (None, 30, 30, 32)        128       \n","_________________________________________________________________\n","max_pooling2d_19 (MaxPooling (None, 15, 15, 32)        0         \n","_________________________________________________________________\n","dropout_13 (Dropout)         (None, 15, 15, 32)        0         \n","_________________________________________________________________\n","conv2d_45 (Conv2D)           (None, 15, 15, 64)        18496     \n","_________________________________________________________________\n","batch_normalization_32 (Batc (None, 15, 15, 64)        256       \n","_________________________________________________________________\n","conv2d_46 (Conv2D)           (None, 15, 15, 64)        36928     \n","_________________________________________________________________\n","batch_normalization_33 (Batc (None, 15, 15, 64)        256       \n","_________________________________________________________________\n","conv2d_47 (Conv2D)           (None, 15, 15, 64)        36928     \n","_________________________________________________________________\n","batch_normalization_34 (Batc (None, 15, 15, 64)        256       \n","_________________________________________________________________\n","max_pooling2d_20 (MaxPooling (None, 7, 7, 64)          0         \n","_________________________________________________________________\n","dropout_14 (Dropout)         (None, 7, 7, 64)          0         \n","_________________________________________________________________\n","conv2d_48 (Conv2D)           (None, 7, 7, 128)         73856     \n","_________________________________________________________________\n","batch_normalization_35 (Batc (None, 7, 7, 128)         512       \n","_________________________________________________________________\n","conv2d_49 (Conv2D)           (None, 7, 7, 128)         147584    \n","_________________________________________________________________\n","max_pooling2d_21 (MaxPooling (None, 3, 3, 128)         0         \n","_________________________________________________________________\n","flatten_7 (Flatten)          (None, 1152)              0         \n","_________________________________________________________________\n","dense_15 (Dense)             (None, 128)               147584    \n","_________________________________________________________________\n","dense_16 (Dense)             (None, 9)                 1161      \n","=================================================================\n","Total params: 473,513\n","Trainable params: 472,809\n","Non-trainable params: 704\n","_________________________________________________________________\n"],"name":"stdout"}]},{"cell_type":"markdown","metadata":{"id":"9mxdpqn3Cptv","colab_type":"text"},"source":["### **Predicted value**"]},{"cell_type":"code","metadata
…
